proj/Flappy-bird-python-master/models/flappy_bird_dqn.pth (torch, 21813 bytes, 6 tensors)

fc1.weight f4 [64, 5]
0	0x3c142209	0.009041318
1	0x3e624e5e	0.22100207
2	0xbe0b6ddf	-0.13616131
3	0xbf1b7c3e	-0.60736454
4	0x3a255339	0.00063066516
5	0x3ea7f8ff	0.32807156
6	0x3d163040	0.03666711
7	0x3ef7d428	0.4840405
8	0x3deb2e9e	0.11483501
9	0x3f091faa	0.5356394
10	0xbe0a65c2	-0.1351538
11	0xbdb40870	-0.08790672
12	0xbedabfd6	-0.42724484
13	0xbe97a51c	-0.29618156
14	0xbe3cc6b6	-0.18435177
15	0xbc8c0d16	-0.017096084
16	0x3ec4e287	0.38454077
17	0xbf2bcdf0	-0.6711111
18	0xc009b3fd	-2.1516106
19	0xbf0c7e4e	-0.54880226
20	0x3e71558d	0.23567791
21	0x3f12f9aa	0.5741221
22	0xbdfeec86	-0.12447457
23	0x3eb56081	0.3542519
24	0x3ea60ff9	0.3243406
25	0x3dcf59ea	0.101245716
26	0x3f166b2a	0.5875727
27	0xbee6b01a	-0.4505623
28	0xbeb3b175	-0.35096326
29	0x3e9df58b	0.30851397
30	0xbd99f1d3	-0.075168274
31	0x3f229e44	0.63522744
32	0xbe4135b0	-0.18868136
33	0xbe82861f	-0.2549295
34	0x3e363e5e	0.17797229
35	0xbed6d1b5	-0.4195687
36	0xbdbfd9a9	-0.09367687
37	0x3fd2e4dd	1.6476094
38	0x3e6ba408	0.23011792
39	0x3ecb3e76	0.3969609
40	0xbd9558da	-0.07292338
41	0x3e3e3ff4	0.18579084
42	0xbf85dba9	-1.045766
43	0xbfdb15b5	-1.7116
44	0xbf55f6f6	-0.8357996
45	0x3d6f6681	0.058447365
46	0x3ecf65d1	0.40507367
47	0x3f665296	0.89969766
48	0xbf95c2bc	-1.1700053
49	0xbd4e4e25	-0.050367493
50	0x3edc7aec	0.43062532
51	0x3e813e6d	0.2524294
52	0x3f85279b	1.0402712
53	0xbeb8c52b	-0.36087927
54	0x3ea05d89	0.31321362
55	0xbe86d1ee	-0.2633204
56	0x3daaabd8	0.08333558
57	0xbeb18639	-0.34672716
58	0xbe9eb2c2	-0.30995756
59	0xbe6c9158	-0.23102319
60	0x3e857365	0.26064602
61	0xbd33eb81	-0.043925766
62	0xbf25be32	-0.6474334
63	0x3f0c7ac8	0.5487485
64	0x3f899d50	1.0751133
65	0x3e9d13a6	0.30679053
66	0x3d37293e	0.044717066
67	0x3f1f40fd	0.6220854
68	0x3f8ff101	1.1245424
69	0x3f6f8e41	0.9357644
70	0xc01f198f	-2.485935
71	0xbf84df74	-1.0380692
72	0x3d09c35f	0.033633586
73	0x3e876b54	0.26449072
74	0x3e950d26	0.29111594
75	0x3f24d10a	0.6438147
76	0x3f0cd2bf	0.55009073
77	0xbd629fee	-0.055328302
78	0x3dfa3a76	0.12218182
79	0xbed8aa5f	-0.42317483
80	0xbee412e7	-0.4454567
81	0x3efc2141	0.4924412
82	0x3e88282f	0.26593158
83	0xbf8084a1	-1.0040475
84	0x3d0023f6	0.031284295
85	0x3d5aec30	0.053447902
86	0xbc23847b	-0.009980316
87	0xbe12af12	-0.14324597
88	0x3efc5a05	0.4928743
89	0xbe9e69ae	-0.30940002
90	0x3e26539c	0.16242832
91	0x3e3f8308	0.18702328
92	0x3e0b1bbb	0.13584797
93	0xbe760fc2	-0.24029449
94	0xbf06f36b	-0.52715176
95	0xbea4d7a1	-0.32195762
96	0x3e88d260	0.26723003
97	0xbd0bb7a5	-0.034110684
98	0xbf544862	-0.8292295
99	0xbea35653	-0.31901798
100	0x3f2b1dbe	0.6684226
101	0x3f2a0682	0.6641618
102	0x3e5fd1e2	0.21857408
103	0x3e03e395	0.12879784
104	0xbea27e00	-0.31736755
105	0x3f2f89b0	0.6856947
106	0xbf53b858	-0.8270316
107	0xbde33af3	-0.11095228
108	0xbeb045ca	-0.34428245
109	0x3e010cc8	0.12602532
110	0xbea3418d	-0.3188595
111	0xbe204fdd	-0.15655465
112	0x3eaeb971	0.34125856
113	0x3ff7b20c	1.935121
114	0x3f4e5367	0.8059601
115	0xbfcf2bdc	-1.618526
116	0xbf966a2e	-1.1751153
117	0x3c270220	0.010193378
118	0x3c9b020e	0.018921878
119	0xbc921e18	-0.017836615
120	0x3e33b614	0.17549926
121	0x3cdb72e0	0.026788175
122	0xbe5f7204	-0.21820837
123	0x3e58b204	0.21161658
124	0xbedba477	-0.42898914
125	0xbe813b22	-0.25240427
126	0x3e18de4d	0.14928551
127	0xc0135bee	-2.302486
128	0xbfd63317	-1.6734341
129	0xbfa0cb75	-1.256209
130	0x3c874737	0.01651345
131	0xbef1d5f5	-0.4723355
132	0xbf6b7829	-0.91980225
133	0x3f321fb8	0.6957965
134	0x3f638180	0.88869476
135	0xbed711d2	-0.42005783
136	0xbf30a331	-0.6899901
137	0xbef1d050	-0.47229242
138	0x3fb1877c	1.3869472
139	0x3efda081	0.49536517
140	0x3e9c9768	0.30584264
141	0x3efda157	0.49537155
142	0x3ff895c1	1.9420701
143	0x3e9c361f	0.3051004
144	0xbe178d7c	-0.14800066
145	0xbe27a21e	-0.16370437
146	0x3eac2d7b	0.3362845
147	0x3cc27f67	0.02374239
148	0xbf211e79	-0.6293712
149	0xbe5cab9d	-0.2154984
150	0xc03054ab	-2.7551677
151	0xbf8b6565	-1.0890318
152	0xbe2d9cd7	-0.16954361
153	0x3e3d7b51	0.18504073
154	0x3e41a1d7	0.18909393
155	0xbe40b80b	-0.18820207
156	0x3ebf9c12	0.3742376
157	0xbeb34bb1	-0.35018685
158	0x3c810953	0.015751516
159	0x3ce69867	0.028148843
160	0xbe02b28e	-0.12763426
161	0xbd3df167	-0.046372797
162	0xbec87e04	-0.39158642
163	0xbeb0a73d	-0.34502593
164	0xbda2f1f8	-0.07956308
165	0xbdc17cac	-0.094476074
166	0xba9a0a08	-0.0011752257
167	0xbe5f8245	-0.21827038
168	0xbfb68b45	-1.4261252
169	0xbeb293eb	-0.34878477
170	0x3e1e3dec	0.15453309
171	0xbde21d79	-0.11040778
172	0xc0237948	-2.5542774
173	0xbfc4c1e4	-1.5371671
174	0xbf8bcc11	-1.0921651
175	0x3d9ff105	0.07809643
176	0x3e484dcc	0.19560927
177	0xbf9491c1	-1.160698
178	0xbf8503c7	-1.0391778
179	0xbf780571	-0.968833
180	0x3cc87d53	0.024473822
181	0x3d74fc0c	0.059810683
182	0x4017ca6e	2.3717303
183	0x3f185029	0.59497315
184	0x3f0ba16a	0.54543173
185	0x3b960d68	0.004579235
186	0xbe33dc81	-0.17564584
187	0xbe819af6	-0.25313538
188	0xbf7cee7a	-0.98801386
189	0x3b777b22	0.0037762602
190	0x3f098382	0.5371629
191	0x3e526f30	0.20550227
192	0xbf3eff2b	-0.74608105
193	0xbf0d8069	-0.55274063
194	0xbf74a49f	-0.9556369
195	0xbd836dcc	-0.064174265
196	0xbf3679db	-0.71279687
197	0x3f543d5c	0.82906127
198	0xbf1441ea	-0.57913077
199	0xbe640889	-0.22268881
200	0x3eb364eb	0.35037932
201	0x3ef9d9d1	0.48798993
202	0xbc628bf8	-0.013827316
203	0xbf8ea4d0	-1.1144047
204	0xbf4add59	-0.79244
205	0x3ebb5f14	0.36595976
206	0xbcfa97fa	-0.030590046
207	0x3ec0ee1a	0.37681657
208	0x3e34d036	0.17657551
209	0xbd147ac8	-0.036249906
210	0xbb5a2c80	-0.0033290684
211	0xbdb50e24	-0.08840588
212	0x3d65d3e0	0.056110263
213	0xbdd123b0	-0.10211885
214	0xbb4def80	-0.003142327
215	0xbe4f0cc7	-0.20219718
216	0xbfa17de8	-1.2616549
217	0xbcd7d5e4	-0.026347108
218	0x3efba474	0.49148905
219	0xbf461832	-0.7738067
220	0xbc210b25	-0.009829317
221	0x3ecc1e22	0.3986674
222	0x3e093299	0.13398208
223	0xbea60731	-0.32427362
224	0xbeae76bc	-0.34074962
225	0x3eb942b5	0.36183706
226	0xbee1c5c9	-0.4409621
227	0xbef45839	-0.4772356
228	0xbee00006	-0.43750018
229	0xbd149ae1	-0.036280517
230	0x3df113f3	0.11771383
231	0x3ed49efc	0.41527545
232	0x3e069682	0.13143352
233	0x3f69d819	0.91345364
234	0x3f9d2319	1.2276336
235	0xbe90c29a	-0.2827347
236	0x3e4d6418	0.20057714
237	0xbea1dc41	-0.31613353
238	0xbe4216de	-0.18954036
239	0x3e06b148	0.13153565
240	0x3f131ee3	0.57469004
241	0x3f2738dd	0.6532114
242	0x3da4cc5b	0.0804679
243	0x3e3ff499	0.1874565
244	0x3f0423a9	0.51616913
245	0xbee7605e	-0.4519071
246	0x3e9b955d	0.30387393
247	0xbeb3bfb8	-0.35107207
248	0x3ccfc62e	0.025363054
249	0xbdc2ee4e	-0.09518109
250	0xbe3d4e17	-0.1848682
251	0x3cd4675b	0.02592819
252	0x3eee42a2	0.46535212
253	0xbda5f7b2	-0.08103885
254	0xbd9f1ca0	-0.07769132
255	0xbc99d3b5	-0.018777708

fc1.bias f4 [64]
0	0x3ec8eb26	0.39241904
1	0x3e19088e	0.1494467
2	0xbeb401c3	-0.35157594
3	0x3e1303db	0.1435694
4	0x3f002178	0.5005107
5	0x3f35e758	0.7105613
6	0x3f1e72e2	0.6189405
7	0x3e1ae755	0.15127309
8	0x3e464487	0.19362079
9	0x3da737b4	0.081649214
10	0xbe54c82c	-0.20779485
11	0xbec4e626	-0.3845684
12	0x3f27bf85	0.6552661
13	0x3ea8c691	0.32963994
14	0xbed16f17	-0.40905067
15	0x3e969b98	0.29415584
16	0x3ee6c38a	0.4507106
17	0x3e066572	0.13124636
18	0x3eeaa0db	0.45825848
19	0x3eec9f4c	0.46215284
20	0x3dde436d	0.10852704
21	0x3eb2c8de	0.34918875
22	0x3ef2d3ec	0.4742731
23	0x3ce73252	0.028222237
24	0xbe89ca96	-0.26912373
25	0x3e987d84	0.2978326
26	0x3e3e344e	0.1857464
27	0x3db2ef81	0.08737088
28	0xbe3987b5	-0.18118174
29	0x3ee32337	0.44362804
30	0xbe5f1cc7	-0.21788321
31	0x3ee5bcbf	0.44870564
32	0xbdfa0749	-0.12208421
33	0x3e6af180	0.22943687
34	0x3ccb4561	0.024813356
35	0x3e1170de	0.14203212
36	0xbe2b1f33	-0.1671112
37	0x3e40487b	0.18777649
38	0xbd7c5348	-0.06160286
39	0xbdc8989b	-0.09794732
40	0x3d8e2bbb	0.06941935
41	0xbf201a2d	-0.6253994
42	0xbeb7e0dd	-0.35913745
43	0xbda09b17	-0.07842081
44	0x3ec29392	0.38003212
45	0x3ee1df7f	0.44115826
46	0x3f05998d	0.52187425
47	0xbecc7bce	-0.39938205
48	0xbc8e99cc	-0.01740732
49	0xbdbbda01	-0.0917244
50	0xbecb5f62	-0.3972121
51	0xbe2dc87d	-0.16971011
52	0xbdc18418	-0.09449023
53	0xbe7da613	-0.24770384
54	0xbedd358e	-0.4320492
55	0xbe81ffa5	-0.25390354
56	0x3edb1645	0.42790428
57	0x3e3cac3c	0.18425077
58	0x3efd9695	0.49528947
59	0x3f401c61	0.750433
60	0x3f1a10fb	0.6018216
61	0xbddc329d	-0.10751841
62	0x3eb862f6	0.36013
63	0x3edcecd3	0.43149433

fc2.weight f4 [64, 64]
0	0x3c1e40c9	0.009659001
1	0x3d88aaeb	0.06673225
2	0x3d84c718	0.064832866
3	0x3ca027d6	0.019550245
4	0xbdd12dfb	-0.10213848
5	0x3ac4c4b5	0.0015012237
6	0xbd34b235	-0.044115264
7	0xbd67d20a	-0.056596793
8	0xbe03dc0a	-0.12876907
9	0xbe037cfe	-0.1284065
10	0xbe1e18b3	-0.1543911
11	0x3dabdc4e	0.08391629
12	0x3cfa03d1	0.030519398
13	0xbd943a9c	-0.07237741
14	0xbd9424c4	-0.07233575
15	0x3d312e40	0.043256998
16	0x3cb23de9	0.021758037
17	0xbd340a3c	-0.043955073
18	0xbdf000f5	-0.117189325
19	0x3d67c58e	0.056584887
20	0xbbe8816f	-0.007095508
21	0xbe014c58	-0.12626779
22	0x3dc8ce76	0.09805004
23	0x3dc26652	0.09492172
24	0xbd3a9e8c	-0.04556136
25	0x3c8af554	0.016962685
26	0xbdbdacb9	-0.0926146
27	0xbcca6f40	-0.024711251
28	0x3d45900d	0.04823308
29	0xbd5a23d0	-0.05325681
30	0xbdb50c40	-0.08840227
31	0xbd966d0b	-0.07345017
32	0xbd0afadc	-0.033930644
33	0xbda899a5	-0.0823243
34	0xbd3ccbc3	-0.04609276
35	0x3d7f4d93	0.06232984
36	0xbca3d297	-0.019997878
37	0xbe0ad0a1	-0.13556148
38	0xbccef972	-0.02526543
39	0x3d07f58b	0.033193152
40	0x3cf84ac6	0.030309092
41	0xbe1036fc	-0.14083475
42	0xbcb73cb0	-0.022367805
43	0xbdbe3eb8	-0.092893064
44	0xbde46fcb	-0.11154135
45	0xbc5aa2d8	-0.013344489
46	0xbe16989b	-0.14706652
47	0x3d3e52fc	0.04646586
48	0x3d985de5	0.07439784
49	0x3c065330	0.008198544
50	0xbde11944	-0.10991147
51	0xbd925655	-0.07145373
52	0x3cdf9ad8	0.027295515
53	0xbdc32746	-0.09528975
54	0x3d7e5dec	0.06210129
55	0xbde86a24	-0.1134837
56	0xbdf61752	-0.12016167
57	0xbe37ee13	-0.17961912
58	0xbdab68e9	-0.083696194
59	0x3cfbcda5	0.030737707
60	0xbe0f3efb	-0.13988869
61	0x3dd4c8ae	0.10389839
62	0xbddda991	-0.10823358
63	0xbcb219cd	-0.021740818
64	0x3bbaca20	0.0057003647
65	0xbe012d95	-0.12615044
66	0x3dd44ee8	0.10366613
67	0x3d7b1650	0.061300576
68	0x3dddf1b1	0.108371146
69	0x3d4cb469	0.04997674
70	0xbdc534c7	-0.09629207
71	0x3db9bc95	0.09069172
72	0xbb0c8008	-0.0021438617
73	0x3d72cc80	0.059277058
74	0xbdcd44ac	-0.10022864
75	0xbd1343c8	-0.035953313
76	0xbe101031	-0.14068677
77	0xbd810556	-0.06299846
78	0x3c232976	0.0099586155
79	0xbda2480a	-0.079238966
80	0x3ce564af	0.028002111
81	0x3d46bb6c	0.048518583
82	0x3b8b68e8	0.004254449
83	0xbdb79587	-0.08964067
84	0xbdc67b5a	-0.09691496
85	0xbd1df5e4	-0.038564578
86	0x3d14ff54	0.036376312
87	0x3dd97172	0.10617341
88	0x3d93351a	0.07187863
89	0xbd109153	-0.035294842
90	0x3ca2e2af	0.019883482
91	0xbe0ea3ba	-0.13929644
92	0xbddaa662	-0.10676266
93	0x3d6ee73c	0.05832599
94	0xbdbea189	-0.09308154
95	0x3d76522c	0.06013696
96	0xbdb4b7f8	-0.08824152
97	0xbd9857da	-0.07438631
98	0xbde89639	-0.11356778
99	0x3d32c347	0.043643262
100	0xbcd05d67	-0.025435163
101	0x3da3c29c	0.07996103
102	0x3d9e6e68	0.07735902
103	0x3d60ef5b	0.054915767
104	0x3b83b620	0.0040195137
105	0xbd3f6188	-0.046723872
106	0xbcdea668	-0.027178958
107	0xbbd9b4c1	-0.006643862
108	0x3d6360d2	0.055512257
109	0xbdd57e2e	-0.104244575
110	0x3db77463	0.08957746
111	0xbc5eade0	-0.01359126
112	0xbdd6839a	-0.1047432
113	0xbd8a82c4	-0.06763223
114	0x3de2836a	0.110602215
115	0x3dcd2618	0.100170314
116	0xbe083884	-0.13302809
117	0x3d8f61b8	0.0700106
118	0x3d804bf8	0.0626449
119	0x3d9787f8	0.07398981
120	0x3dafbd56	0.08581035
121	0xbda5b24e	-0.080906495
122	0x3cc435a9	0.023951368
123	0x3cfdb703	0.030971056
124	0xbd6b6dd6	-0.057477795
125	0x3cb1dfd7	0.02171318
126	0xbd51ee7c	-0.051252827
127	0x3d7f6d6d	0.062360216
128	0xbd0e0e88	-0.034681827
129	0xbd83a761	-0.06428409
130	0x3d00e540	0.03146863
131	0x3cd12c62	0.025533859
132	0xbda05506	-0.07828717
133	0x3bc39166	0.0059682606
134	0x3d87122b	0.06595262
135	0xbcecf65d	-0.028926069
136	0x3c9fb624	0.019496031
137	0xbd4b7e7d	-0.049681176
138	0x3ccd08ae	0.025028553
139	0xbdb971e6	-0.090549275
140	0xbdb7f474	-0.089821726
141	0xbda40790	-0.08009255
142	0x3dd051da	0.10171862
143	0xbd09c564	-0.033635512
144	0xbc956d3b	-0.018240562
145	0xbd9c296a	-0.076250866
146	0x3ddaa77c	0.10676476
147	0x3dd40092	0.10351671
148	0xbdcacbd4	-0.099021584
149	0xbdcf8810	-0.10133374
150	0xbdd876c5	-0.105695285
151	0xbc8550d2	-0.01627389
152	0xbd0282c4	-0.03186299
153	0xbdc5822a	-0.096439674
154	0xbd4c1d75	-0.04983278
155	0x3bfe9752	0.0077695036
156	0xbdad2464	-0.084542066
157	0x3c056ab2	0.008143114
158	0xbd07529a	-0.03303776
159	0xbd7818b0	-0.06057042
160	0x3c8caec8	0.017173186
161	0x3dae16e5	0.085004605
162	0xbdd1d597	-0.10245817
163	0xbb913be1	-0.004432187
164	0xbd81f8b3	-0.06346264
165	0x3dd72e5e	0.10506891
166	0xbdf2e226	-0.11859541
167	0xbe0c42cc	-0.13697356
168	0x3dfc4230	0.12317312
169	0xbdc642e9	-0.09680731
170	0x3cc45320	0.023965418
171	0xbcd1fe16	-0.025633853
172	0xbd3b0d0d	-0.045666743
173	0xbd39a2b9	-0.0453212
174	0x3d7fc61a	0.062444784
175	0x3bc3c6c0	0.0059746206
176	0xbdf93ece	-0.12170182
177	0xbd9721d8	-0.07379502
178	0xbd7d7e10	-0.0618878
179	0x3d3a55ba	0.04549191
180	0xbdc389a8	-0.0954774
181	0x3dd55122	0.104158655
182	0xbce41328	-0.027841166
183	0xbcb7df18	-0.022445247
184	0x3daf59fc	0.08562085
185	0x3d393319	0.045214746
186	0x3db4f7d9	0.08836336
187	0x3d9414ee	0.072305545
188	0xbd488f5f	-0.048964854
189	0xbdc90df4	-0.098171145
190	0xbcd6ebbf	-0.02623546
191	0x3db0cc31	0.086326964
192	0xbdc39c0c	-0.09551248
193	0x3d984671	0.07435311
194	0x3d51e224	0.051241055
195	0x3f0feea3	0.56223506
196	0xbe39a43b	-0.18129055
197	0xbed40773	-0.41411933
198	0xbedbac47	-0.42904875
199	0x3ebebe2e	0.3725447
200	0x3f045f02	0.5170747
201	0x3cceab82	0.025228266
202	0x3e0330e6	0.12811622
203	0x3d426fc0	0.047469854
204	0xbd1e5cc6	-0.038662694
205	0x3c5c248b	0.013436447
206	0x3f109b28	0.5648675
207	0x3ddf9a4b	0.10918101
208	0xbd0ac511	-0.033879343
209	0x3e028d01	0.12749101
210	0x3e881795	0.26580492
211	0x3e80bee0	0.25145626
212	0x3e14bbfa	0.14524832
213	0xbe740de6	-0.23833427
214	0xbded8070	-0.11596763
215	0xbe5a4e96	-0.2131904
216	0xbdd7f530	-0.10544813
217	0x3f42459a	0.75887454
218	0xbf0ec804	-0.5577395
219	0xbea30ec2	-0.31847197
220	0x3e601634	0.2188347
221	0xbca2e4a8	-0.019884422
222	0x3efd4455	0.49466196
223	0xbe131ed8	-0.14367235
224	0xbd8ebd3f	-0.069696896
225	0x3eda94b7	0.42691585
226	0x3ef4651b	0.47733387
227	0x3eb3b3f4	0.3509823
228	0x3f60dcaf	0.87836736
229	0x3e8aa23b	0.27076897
230	0x3ed45b3b	0.41475853
231	0x3ec04175	0.3754994
232	0x3f116160	0.5678921
233	0x3eb479a0	0.35249043
234	0x3dd9d1c4	0.10635713
235	0x3e4e14ef	0.20125173
236	0x3d58e7ff	0.052955624
237	0x3ebef18a	0.37293655
238	0xbd7e0946	-0.062020563
239	0xbdf9c638	-0.1219601
240	0x3dbc0d92	0.09182276
241	0xbdd5c031	-0.10437048
242	0x3ec7ecd4	0.39047873
243	0x3be1a753	0.0068864017
244	0x3e8a4d9c	0.27012336
245	0x3f639f87	0.88915294
246	0x3da0c574	0.07850161
247	0x3d050490	0.032475054
248	0x3e6c4c36	0.23075947
249	0x3ec363de	0.3816213
250	0x3e539cf7	0.20665346
251	0xbea649e3	-0.32478246
252	0x3d054258	0.032533973
253	0xbe2277a3	-0.1586595
254	0x3dec084a	0.115250185
255	0x3e87a152	0.26490265

fc2.bias f4 [64]
0	0xbd65198d	-0.05593257
1	0xbdec8682	-0.11549093
2	0xbdb8add4	-0.0901753
3	0xbd87168e	-0.06596099
4	0xbc51d7df	-0.012807815
5	0xbcc38e59	-0.023871588
6	0xbcfa8914	-0.030582942
7	0x3e655361	0.22395088
8	0xbd19364b	-0.037405293
9	0xbe8aafd9	-0.27087286
10	0x3d1b7fe9	0.03796378
11	0xbcd87ae0	-0.026425779
12	0x3d767e35	0.060178954
13	0x3cb379f7	0.021908743
14	0x3e26041e	0.16212508
15	0x3ebf4bc0	0.3736248
16	0xbd7fb5a1	-0.062429074
17	0x3ec061d8	0.3757465
18	0x3ec2c4ca	0.38040763
19	0xbe2bb460	-0.16768026
20	0x3e0edf1d	0.13952298
21	0xbe00634f	-0.12537883
22	0x3e0b894a	0.1362659
23	0x3ea249da	0.3169697
24	0xbc98c0ac	-0.01864656
25	0xbd0156a6	-0.031576775
26	0x3e5a94a3	0.21345763
27	0x3cdba944	0.02681411
28	0x3eb58805	0.35455337
29	0x3caebeff	0.021331308
30	0x3ebd412b	0.36963782
31	0x3d759f10	0.059966147
32	0xbd6f4c61	-0.05842245
33	0xbde54688	-0.111950934
34	0x3eca8cc5	0.39560524
35	0xbd4dd4c1	-0.050251726
36	0xbe4ce65d	-0.20009752
37	0x3ca60bcb	0.020269295
38	0x3d36cf78	0.04463145
39	0xbc882b94	-0.016622342
40	0xbdddf711	-0.1083814
41	0xbe07821e	-0.1323323
42	0x3e66fbd7	0.22557007
43	0x3ce5f285	0.028069744
44	0x3d124724	0.035712376
45	0x3e6cef8e	0.23138258
46	0xbd9d8769	-0.07691843
47	0xbc4aa440	-0.012368262
48	0xbddd7684	-0.10813621
49	0x3e156372	0.14588717
50	0xbe1f248d	-0.15541287
51	0x3e434f5c	0.19073242
52	0xbe229630	-0.15877604
53	0xbd24bab2	-0.04021711
54	0x3e21a14a	0.15784183
55	0xbcd039a9	-0.02541812
56	0xbba6f371	-0.0050949384
57	0xbd41c45c	-0.047306404
58	0xbe144eb3	-0.14483146
59	0xbe1ea085	-0.15490921
60	0x3e8e2d98	0.2776916
61	0x3e54dbe1	0.20787002
62	0x3b578940	0.0032888204
63	0x3ec6b10e	0.38806957

fc3.weight f4 [2, 64]
0	0xbd9ced04	-0.07662395
1	0x3d80e258	0.06293172
2	0xbda13022	-0.07870509
3	0xbed7abfd	-0.42123404
4	0xb9c5c529	-0.00037721664
5	0xbbe13907	-0.0068732533
6	0x3daf7456	0.08567111
7	0x3e757d18	0.239735
8	0x3f23038d	0.63677293
9	0xbe96a076	-0.29419297
10	0xbd3accee	-0.045605592
11	0xbd1c4113	-0.038147997
12	0xbdea0177	-0.11426061
13	0xbf0adcb4	-0.54243016
14	0xbfd92873	-1.6965469
15	0x3e7f0f18	0.24908102
16	0xbfc80a76	-1.5628192
17	0x3e9cffe4	0.3066398
18	0x3ecc3748	0.39885926
19	0x3e78138d	0.24226208
20	0xc00e1b9e	-2.2204356
21	0x3dd00946	0.10158019
22	0x3eb6e58d	0.35722008
23	0x3e639a25	0.2222677
24	0x3d7cec4f	0.0617488
25	0xbdd6efde	-0.1049497
26	0xc00f3e8e	-2.238193
27	0xbc508a1c	-0.01272824
28	0x3eb7033c	0.35744655
29	0xbef09bda	-0.46993905
30	0x3ea57867	0.32318422
31	0x3d6e4417	0.058170404
32	0x3efacbd1	0.48983625
33	0xbdbcf8da	-0.09227152
34	0x3ea92647	0.33037016
35	0x3ac0f35c	0.0014720964
36	0x3efd1215	0.49427858
37	0xbeba90d6	-0.36438626
38	0xbdc609f7	-0.096698694
39	0xbef34d2c	-0.47519815
40	0x3dadac14	0.08480087
41	0x3dcbe76e	0.09956251
42	0x3da69a7f	0.081349365
43	0x3da31a40	0.07963991
44	0xbde1991c	-0.110155314
45	0x3e8cd859	0.2750881
46	0x3dd767de	0.10517858
47	0x3d37edad	0.0449044
48	0xbd9fa702	-0.07795526
49	0xc003e829	-2.061045
50	0x3c05c3db	0.008164371
51	0x3ea3e6ce	0.32012028
52	0x3c079d1c	0.008277204
53	0x3d38c323	0.045107972
54	0x3c07906b	0.008274178
55	0xbdb69826	-0.08915739
56	0x3d28fd6e	0.041257314
57	0xbdc18a30	-0.09450185
58	0x3e6db8f8	0.23215091
59	0xbee76284	-0.4519235
60	0x3eb42d04	0.35190594
61	0x3eb74012	0.3579107
62	0xbdba3446	-0.090920016
63	0x3ea56a68	0.32307744
64	0x3da99822	0.0828097
65	0x3dba9971	0.09111298
66	0x3cca397b	0.024685612
67	0x3e1d8faa	0.15386835
68	0x3d30cc48	0.043163568
69	0x3c0f3f1e	0.008743076
70	0xbd5a9fb7	-0.053374972
71	0x3ea981c9	0.3310683
72	0x3e19f6a1	0.15035488
73	0xbe2e563a	-0.1702508
74	0xbf629db2	-0.88521874
75	0x3da08d5d	0.07839463
76	0x3e964291	0.2934766
77	0x3e32bf4a	0.17455783
78	0xbf61a40a	-0.8814093
79	0x3ec31c6d	0.38107625
80	0xbf13eefb	-0.5778653
81	0x3e75ed32	0.24016264
82	0x3e952a57	0.29133865
83	0xbc7af6d8	-0.015317641
84	0xbf802171	-1.0010206
85	0x3e83f92e	0.25776047
86	0xbe69da57	-0.22837196
87	0x3e9ecd18	0.3101585
88	0x3e6d6f65	0.23187025
89	0x3f45f7ed	0.7733143
90	0xbf8db555	-1.1070963
91	0xbdba610e	-0.09100543
92	0x3e9cd3e7	0.3063042
93	0x3dfef42b	0.12448915
94	0x3e833a3d	0.2563037
95	0x3ed27710	0.41106462
96	0x3ed65d50	0.41868067
97	0x3d8f12f0	0.06986034
98	0x3eb40e7e	0.35167307
99	0x3c965c88	0.01835467
100	0x3e15aac6	0.14615926
101	0x3d83eeb6	0.06442015
102	0xbcaccc70	-0.021093577
103	0x3cd3f6c3	0.025874501
104	0x3e866451	0.2624841
105	0x3e2d4ce4	0.16923863
106	0x3ec8eacc	0.39241636
107	0xbb954dae	-0.0045563793
108	0xbc15e8d0	-0.009149745
109	0xbe2ce84e	-0.16885492
110	0xbc3f4874	-0.011674989
111	0xbd20b6b0	-0.039236724
112	0xbdbcfec0	-0.09228277
113	0xbf3a481e	-0.7276629
114	0xbcc97138	-0.02459012
115	0x3ebe415d	0.37159243
116	0xbde1568b	-0.11002835
117	0x3e785e08	0.2425462
118	0xc06e4f55	-3.723592
119	0xbdbdbe04	-0.09264758
120	0xbd153537	-0.036427703
121	0x3bfc8800	0.007706642
122	0x3e1b5ad7	0.15171371
123	0xbe8f73bc	-0.28017986
124	0x3ec34006	0.38134784
125	0x3e73aafd	0.23795696
126	0xbd495ff0	-0.04916376
127	0x3e77bdd7	0.24193512

fc3.bias f4 [2]
0	0x3ea488f9	0.32135752
1	0x3d848098	0.0646984
